…
2021-12-10 11:02:19,577 - root - INFO - [6 /10]       extract geographic features done.
2021-12-10 11:02:20,346 - root - INFO - [7 /10]       extract commercial features done.
2021-12-10 11:02:20,357 - root - INFO - [8 /10]       combine features done.
2021-12-10 11:02:37,265 - root - INFO - [9 /10]       get PCCS and generate delta set done.
2021-12-10 11:02:37,277 - root - INFO - [10/10]       generate training and testing index done.
2021-12-10 11:02:37,367 - root - INFO - --------------load data done.
2021-12-10 11:02:37,380 - root - INFO - CityTransfer(
  (auto_encoder): ModuleList(
    (0): TwoLayersAutoencoder(
      (encoder): Sequential(
        (0): Linear(in_features=31, out_features=17, bias=True)
        (1): SELU()
        (2): Linear(in_features=17, out_features=13, bias=True)
        (3): SELU()
        (4): Linear(in_features=13, out_features=9, bias=True)
      )
      (decoder): Sequential(
        (0): Linear(in_features=9, out_features=13, bias=True)
        (1): SELU()
        (2): Linear(in_features=13, out_features=17, bias=True)
        (3): SELU()
        (4): Linear(in_features=17, out_features=31, bias=True)
      )
    )
    (1): TwoLayersAutoencoder(
      (encoder): Sequential(
        (0): Linear(in_features=31, out_features=17, bias=True)
        (1): SELU()
        (2): Linear(in_features=17, out_features=13, bias=True)
        (3): SELU()
        (4): Linear(in_features=13, out_features=9, bias=True)
      )
      (decoder): Sequential(
        (0): Linear(in_features=9, out_features=13, bias=True)
        (1): SELU()
        (2): Linear(in_features=13, out_features=17, bias=True)
        (3): SELU()
        (4): Linear(in_features=17, out_features=31, bias=True)
      )
    )
  )
)
2021-12-10 11:02:37,382 - root - INFO - --------------construct model and optimizer done.
2021-12-10 11:02:37,382 - root - INFO - --------------initialize metrics done.
2021-12-10 11:02:37,382 - root - INFO - [!]-----------start training.
2021-12-10 11:02:37,521 - root - INFO - Training: Epoch 0000 / 0075 | Iter 0000 / 0272 | Time 0.1s | Iter Loss 662.8151 | Iter Mean Loss 662.8151
…
