…
2021-12-05 12:01:23,259 - root - INFO - [6 /10]       extract geographic features done.
2021-12-05 12:01:23,611 - root - INFO - [7 /10]       extract commercial features done.
2021-12-05 12:01:23,627 - root - INFO - [8 /10]       combine features done.
2021-12-05 12:01:39,986 - root - INFO - [9 /10]       get PCCS and generate delta set done.
2021-12-05 12:01:40,001 - root - INFO - [10/10]       generate training and testing index done.
2021-12-05 12:01:40,083 - root - INFO - --------------load data done.
2021-12-05 12:01:40,104 - root - INFO - CityTransfer(
  (auto_encoder): ModuleList(
    (0): ConvAutoencoder(
      (encoder): Sequential(
        (0): Conv2d(31, 16, kernel_size=(3, 3), stride=(2, 2), padding=(1, 1))
        (1): ReLU()
        (2): Conv2d(16, 32, kernel_size=(3, 3), stride=(2, 2), padding=(1, 1))
        (3): ReLU()
        (4): Conv2d(32, 64, kernel_size=(7, 7), stride=(1, 1))
      )
      (decoder): Sequential(
        (0): ConvTranspose2d(64, 32, kernel_size=(7, 7), stride=(1, 1))
        (1): ReLU()
        (2): ConvTranspose2d(32, 16, kernel_size=(3, 3), stride=(2, 2), padding=(1, 1), output_padding=(1, 1))
        (3): ReLU()
        (4): ConvTranspose2d(16, 9, kernel_size=(3, 3), stride=(2, 2), padding=(1, 1), output_padding=(1, 1))
        (5): Sigmoid()
      )
    )
    (1): ConvAutoencoder(
      (encoder): Sequential(
        (0): Conv2d(31, 16, kernel_size=(3, 3), stride=(2, 2), padding=(1, 1))
        (1): ReLU()
        (2): Conv2d(16, 32, kernel_size=(3, 3), stride=(2, 2), padding=(1, 1))
        (3): ReLU()
        (4): Conv2d(32, 64, kernel_size=(7, 7), stride=(1, 1))
      )
      (decoder): Sequential(
        (0): ConvTranspose2d(64, 32, kernel_size=(7, 7), stride=(1, 1))
        (1): ReLU()
        (2): ConvTranspose2d(32, 16, kernel_size=(3, 3), stride=(2, 2), padding=(1, 1), output_padding=(1, 1))
        (3): ReLU()
        (4): ConvTranspose2d(16, 9, kernel_size=(3, 3), stride=(2, 2), padding=(1, 1), output_padding=(1, 1))
        (5): Sigmoid()
      )
    )
  )
)
2021-12-05 12:01:40,105 - root - INFO - --------------construct model and optimizer done.
2021-12-05 12:01:40,106 - root - INFO - --------------initialize metrics done.
2021-12-05 12:01:40,106 - root - INFO - [!]-----------start training.
