…
2021-12-05 19:46:30,116 - root - INFO - [6 /10]       extract geographic features done.
2021-12-05 19:46:30,886 - root - INFO - [7 /10]       extract commercial features done.
2021-12-05 19:46:30,896 - root - INFO - [8 /10]       combine features done.
2021-12-05 19:46:47,891 - root - INFO - [9 /10]       get PCCS and generate delta set done.
2021-12-05 19:46:47,904 - root - INFO - [10/10]       generate training and testing index done.
2021-12-05 19:46:47,994 - root - INFO - --------------load data done.
2021-12-05 19:46:47,998 - root - INFO - CityTransfer(
  (auto_encoder): ModuleList(
    (0): denoising_model(
      (encoder): Sequential(
        (0): Linear(in_features=31, out_features=128, bias=True)
        (1): SELU(inplace=True)
        (2): Linear(in_features=128, out_features=64, bias=True)
        (3): SELU(inplace=True)
        (4): Linear(in_features=64, out_features=9, bias=True)
        (5): SELU(inplace=True)
      )
      (decoder): Sequential(
        (0): Linear(in_features=9, out_features=64, bias=True)
        (1): SELU(inplace=True)
        (2): Linear(in_features=64, out_features=128, bias=True)
        (3): SELU(inplace=True)
        (4): Linear(in_features=128, out_features=31, bias=True)
        (5): SELU(inplace=True)
      )
    )
    (1): denoising_model(
      (encoder): Sequential(
        (0): Linear(in_features=31, out_features=128, bias=True)
        (1): SELU(inplace=True)
        (2): Linear(in_features=128, out_features=64, bias=True)
        (3): SELU(inplace=True)
        (4): Linear(in_features=64, out_features=9, bias=True)
        (5): SELU(inplace=True)
      )
      (decoder): Sequential(
        (0): Linear(in_features=9, out_features=64, bias=True)
        (1): SELU(inplace=True)
        (2): Linear(in_features=64, out_features=128, bias=True)
        (3): SELU(inplace=True)
        (4): Linear(in_features=128, out_features=31, bias=True)
        (5): SELU(inplace=True)
      )
    )
  )
)
2021-12-05 19:46:47,999 - root - INFO - --------------construct model and optimizer done.
2021-12-05 19:46:47,999 - root - INFO - --------------initialize metrics done.
2021-12-05 19:46:47,999 - root - INFO - [!]-----------start training.
2021-12-05 19:46:48,143 - root - INFO - Training: Epoch 0000 / 0010 | Iter 0000 / 0272 | Time 0.1s | Iter Loss 671.8174 | Iter Mean Loss 671.8174
…
