…
2021-12-05 20:15:35,286 - root - INFO - [6 /10]       extract geographic features done.
2021-12-05 20:15:36,070 - root - INFO - [7 /10]       extract commercial features done.
2021-12-05 20:15:36,082 - root - INFO - [8 /10]       combine features done.
2021-12-05 20:15:53,511 - root - INFO - [9 /10]       get PCCS and generate delta set done.
2021-12-05 20:15:53,524 - root - INFO - [10/10]       generate training and testing index done.
2021-12-05 20:15:53,635 - root - INFO - --------------load data done.
2021-12-05 20:15:53,638 - root - INFO - CityTransfer(
  (auto_encoder): ModuleList(
    (0): VAE(
      (fc1): Linear(in_features=31, out_features=9, bias=True)
      (fc2): Linear(in_features=9, out_features=20, bias=True)
      (fc3): Linear(in_features=9, out_features=20, bias=True)
      (fc4): Linear(in_features=20, out_features=9, bias=True)
      (fc5): Linear(in_features=9, out_features=31, bias=True)
    )
    (1): VAE(
      (fc1): Linear(in_features=31, out_features=9, bias=True)
      (fc2): Linear(in_features=9, out_features=20, bias=True)
      (fc3): Linear(in_features=9, out_features=20, bias=True)
      (fc4): Linear(in_features=20, out_features=9, bias=True)
      (fc5): Linear(in_features=9, out_features=31, bias=True)
    )
  )
)
2021-12-05 20:15:53,638 - root - INFO - --------------construct model and optimizer done.
2021-12-05 20:15:53,638 - root - INFO - --------------initialize metrics done.
2021-12-05 20:15:53,639 - root - INFO - [!]-----------start training.
