…
2021-12-03 21:46:35,521 - root - INFO - [6 /10]       extract geographic features done.
2021-12-03 21:46:35,866 - root - INFO - [7 /10]       extract commercial features done.
2021-12-03 21:46:35,878 - root - INFO - [8 /10]       combine features done.
2021-12-03 21:46:52,109 - root - INFO - [9 /10]       get PCCS and generate delta set done.
2021-12-03 21:46:52,121 - root - INFO - [10/10]       generate training and testing index done.
2021-12-03 21:46:52,198 - root - INFO - --------------load data done.
2021-12-03 21:46:52,208 - root - INFO - CityTransfer(
  (auto_encoder): ModuleList(
    (0): denoising_model(
      (encoder): Sequential(
        (0): Linear(in_features=31, out_features=256, bias=True)
        (1): ReLU(inplace=True)
        (2): Linear(in_features=256, out_features=128, bias=True)
        (3): ReLU(inplace=True)
        (4): Linear(in_features=128, out_features=64, bias=True)
        (5): ReLU(inplace=True)
      )
      (decoder): Sequential(
        (0): Linear(in_features=64, out_features=128, bias=True)
        (1): ReLU(inplace=True)
        (2): Linear(in_features=128, out_features=256, bias=True)
        (3): ReLU(inplace=True)
        (4): Linear(in_features=256, out_features=31, bias=True)
        (5): Sigmoid()
      )
    )
    (1): denoising_model(
      (encoder): Sequential(
        (0): Linear(in_features=31, out_features=256, bias=True)
        (1): ReLU(inplace=True)
        (2): Linear(in_features=256, out_features=128, bias=True)
        (3): ReLU(inplace=True)
        (4): Linear(in_features=128, out_features=64, bias=True)
        (5): ReLU(inplace=True)
      )
      (decoder): Sequential(
        (0): Linear(in_features=64, out_features=128, bias=True)
        (1): ReLU(inplace=True)
        (2): Linear(in_features=128, out_features=256, bias=True)
        (3): ReLU(inplace=True)
        (4): Linear(in_features=256, out_features=31, bias=True)
        (5): Sigmoid()
      )
    )
  )
)
2021-12-03 21:46:52,210 - root - INFO - --------------construct model and optimizer done.
2021-12-03 21:46:52,210 - root - INFO - --------------initialize metrics done.
2021-12-03 21:46:52,210 - root - INFO - [!]-----------start training.
