…
2021-12-03 22:10:51,168 - root - INFO - [6 /10]       extract geographic features done.
2021-12-03 22:10:51,511 - root - INFO - [7 /10]       extract commercial features done.
2021-12-03 22:10:51,522 - root - INFO - [8 /10]       combine features done.
2021-12-03 22:11:07,967 - root - INFO - [9 /10]       get PCCS and generate delta set done.
2021-12-03 22:11:07,982 - root - INFO - [10/10]       generate training and testing index done.
2021-12-03 22:11:08,059 - root - INFO - --------------load data done.
2021-12-03 22:11:08,063 - root - INFO - CityTransfer(
  (auto_encoder): ModuleList(
    (0): denoising_model(
      (encoder): Sequential(
        (0): Linear(in_features=31, out_features=12, bias=True)
        (1): SELU(inplace=True)
        (2): Linear(in_features=12, out_features=7, bias=True)
        (3): SELU(inplace=True)
        (4): Linear(in_features=7, out_features=9, bias=True)
        (5): SELU(inplace=True)
      )
      (decoder): Sequential(
        (0): Linear(in_features=9, out_features=7, bias=True)
        (1): SELU(inplace=True)
        (2): Linear(in_features=7, out_features=12, bias=True)
        (3): SELU(inplace=True)
        (4): Linear(in_features=12, out_features=31, bias=True)
        (5): SELU(inplace=True)
      )
    )
    (1): denoising_model(
      (encoder): Sequential(
        (0): Linear(in_features=31, out_features=12, bias=True)
        (1): SELU(inplace=True)
        (2): Linear(in_features=12, out_features=7, bias=True)
        (3): SELU(inplace=True)
        (4): Linear(in_features=7, out_features=9, bias=True)
        (5): SELU(inplace=True)
      )
      (decoder): Sequential(
        (0): Linear(in_features=9, out_features=7, bias=True)
        (1): SELU(inplace=True)
        (2): Linear(in_features=7, out_features=12, bias=True)
        (3): SELU(inplace=True)
        (4): Linear(in_features=12, out_features=31, bias=True)
        (5): SELU(inplace=True)
      )
    )
  )
)
2021-12-03 22:11:08,064 - root - INFO - --------------construct model and optimizer done.
2021-12-03 22:11:08,064 - root - INFO - --------------initialize metrics done.
2021-12-03 22:11:08,064 - root - INFO - [!]-----------start training.
2021-12-03 22:11:08,095 - root - INFO - Training: Epoch 0000 / 0010 | Iter 0000 / 0272 | Time 0.0s | Iter Loss 2195.3665 | Iter Mean Loss 2195.3665
…
