…
2021-12-03 21:52:47,633 - root - INFO - [6 /10]       extract geographic features done.
2021-12-03 21:52:47,956 - root - INFO - [7 /10]       extract commercial features done.
2021-12-03 21:52:47,968 - root - INFO - [8 /10]       combine features done.
2021-12-03 21:53:05,257 - root - INFO - [9 /10]       get PCCS and generate delta set done.
2021-12-03 21:53:05,270 - root - INFO - [10/10]       generate training and testing index done.
2021-12-03 21:53:05,380 - root - INFO - --------------load data done.
2021-12-03 21:53:05,383 - root - INFO - CityTransfer(
  (auto_encoder): ModuleList(
    (0): denoising_model(
      (encoder): Sequential(
        (0): Linear(in_features=31, out_features=12, bias=True)
        (1): ReLU(inplace=True)
        (2): Linear(in_features=12, out_features=7, bias=True)
        (3): ReLU(inplace=True)
        (4): Linear(in_features=7, out_features=9, bias=True)
        (5): ReLU(inplace=True)
      )
      (decoder): Sequential(
        (0): Linear(in_features=9, out_features=7, bias=True)
        (1): ReLU(inplace=True)
        (2): Linear(in_features=7, out_features=12, bias=True)
        (3): ReLU(inplace=True)
        (4): Linear(in_features=12, out_features=31, bias=True)
        (5): Sigmoid()
      )
    )
    (1): denoising_model(
      (encoder): Sequential(
        (0): Linear(in_features=31, out_features=12, bias=True)
        (1): ReLU(inplace=True)
        (2): Linear(in_features=12, out_features=7, bias=True)
        (3): ReLU(inplace=True)
        (4): Linear(in_features=7, out_features=9, bias=True)
        (5): ReLU(inplace=True)
      )
      (decoder): Sequential(
        (0): Linear(in_features=9, out_features=7, bias=True)
        (1): ReLU(inplace=True)
        (2): Linear(in_features=7, out_features=12, bias=True)
        (3): ReLU(inplace=True)
        (4): Linear(in_features=12, out_features=31, bias=True)
        (5): Sigmoid()
      )
    )
  )
)
2021-12-03 21:53:05,384 - root - INFO - --------------construct model and optimizer done.
2021-12-03 21:53:05,384 - root - INFO - --------------initialize metrics done.
2021-12-03 21:53:05,384 - root - INFO - [!]-----------start training.
2021-12-03 21:53:05,449 - root - INFO - Training: Epoch 0000 / 0010 | Iter 0000 / 0272 | Time 0.1s | Iter Loss 982.6367 | Iter Mean Loss 982.6367
…
