…
2021-12-09 21:39:01,086 - root - INFO - [6 /10]       extract geographic features done.
2021-12-09 21:39:01,389 - root - INFO - [7 /10]       extract commercial features done.
2021-12-09 21:39:01,394 - root - INFO - [8 /10]       combine features done.
2021-12-09 21:39:12,292 - root - INFO - [9 /10]       get PCCS and generate delta set done.
2021-12-09 21:39:12,298 - root - INFO - [10/10]       generate training and testing index done.
2021-12-09 21:39:12,353 - root - INFO - --------------load data done.
2021-12-09 21:39:12,620 - root - INFO - CityTransfer(
  (auto_encoder): ModuleList(
    (0): TwoLayersAutoencoder(
      (encoder): Sequential(
        (0): Linear(in_features=32, out_features=17, bias=True)
        (1): SELU()
        (2): Linear(in_features=17, out_features=13, bias=True)
        (3): SELU()
        (4): Linear(in_features=13, out_features=9, bias=True)
      )
      (decoder): Sequential(
        (0): Linear(in_features=9, out_features=13, bias=True)
        (1): SELU()
        (2): Linear(in_features=13, out_features=17, bias=True)
        (3): SELU()
        (4): Linear(in_features=17, out_features=32, bias=True)
      )
    )
    (1): TwoLayersAutoencoder(
      (encoder): Sequential(
        (0): Linear(in_features=32, out_features=17, bias=True)
        (1): SELU()
        (2): Linear(in_features=17, out_features=13, bias=True)
        (3): SELU()
        (4): Linear(in_features=13, out_features=9, bias=True)
      )
      (decoder): Sequential(
        (0): Linear(in_features=9, out_features=13, bias=True)
        (1): SELU()
        (2): Linear(in_features=13, out_features=17, bias=True)
        (3): SELU()
        (4): Linear(in_features=17, out_features=32, bias=True)
      )
    )
  )
)
2021-12-09 21:39:12,621 - root - INFO - --------------construct model and optimizer done.
2021-12-09 21:39:12,621 - root - INFO - --------------initialize metrics done.
2021-12-09 21:39:12,779 - root - INFO - [!]-----------start training.
2021-12-09 21:39:14,591 - root - INFO - Training: Epoch 0000 / 0075 | Iter 0000 / 0272 | Time 1.8s | Iter Loss 1192.3453 | Iter Mean Loss 1192.3453
…
