…
2021-12-09 00:31:06,470 - root - INFO - [6 /10]       extract geographic features done.
2021-12-09 00:31:06,776 - root - INFO - [7 /10]       extract commercial features done.
2021-12-09 00:31:06,780 - root - INFO - [8 /10]       combine features done.
2021-12-09 00:31:17,624 - root - INFO - [9 /10]       get PCCS and generate delta set done.
2021-12-09 00:31:17,633 - root - INFO - [10/10]       generate training and testing index done.
2021-12-09 00:31:17,703 - root - INFO - --------------load data done.
2021-12-09 00:31:17,885 - root - INFO - CityTransfer(
  (auto_encoder): ModuleList(
    (0): FourLayerAutoencoder(
      (encoder): Sequential(
        (0): Linear(in_features=31, out_features=31, bias=True)
        (1): SELU()
        (2): Linear(in_features=31, out_features=17, bias=True)
        (3): SELU()
        (4): Linear(in_features=17, out_features=13, bias=True)
        (5): SELU()
        (6): Linear(in_features=13, out_features=11, bias=True)
        (7): SELU()
        (8): Linear(in_features=11, out_features=9, bias=True)
      )
      (decoder): Sequential(
        (0): Linear(in_features=9, out_features=11, bias=True)
        (1): SELU()
        (2): Linear(in_features=11, out_features=13, bias=True)
        (3): SELU()
        (4): Linear(in_features=13, out_features=17, bias=True)
        (5): SELU()
        (6): Linear(in_features=17, out_features=31, bias=True)
        (7): SELU()
        (8): Linear(in_features=31, out_features=31, bias=True)
      )
    )
    (1): FourLayerAutoencoder(
      (encoder): Sequential(
        (0): Linear(in_features=31, out_features=31, bias=True)
        (1): SELU()
        (2): Linear(in_features=31, out_features=17, bias=True)
        (3): SELU()
        (4): Linear(in_features=17, out_features=13, bias=True)
        (5): SELU()
        (6): Linear(in_features=13, out_features=11, bias=True)
        (7): SELU()
        (8): Linear(in_features=11, out_features=9, bias=True)
      )
      (decoder): Sequential(
        (0): Linear(in_features=9, out_features=11, bias=True)
        (1): SELU()
        (2): Linear(in_features=11, out_features=13, bias=True)
        (3): SELU()
        (4): Linear(in_features=13, out_features=17, bias=True)
        (5): SELU()
        (6): Linear(in_features=17, out_features=31, bias=True)
        (7): SELU()
        (8): Linear(in_features=31, out_features=31, bias=True)
      )
    )
  )
)
2021-12-09 00:31:17,885 - root - INFO - --------------construct model and optimizer done.
2021-12-09 00:31:17,885 - root - INFO - --------------initialize metrics done.
2021-12-09 00:31:18,044 - root - INFO - [!]-----------start training.
2021-12-09 00:31:19,909 - root - INFO - Training: Epoch 0000 / 0075 | Iter 0000 / 0272 | Time 1.9s | Iter Loss 1036.0433 | Iter Mean Loss 1036.0433
…
